…
    "images, labels = dataiter.next() # returning a batch \n",
    "print(' '.join('%s'%classes[labels[j]] for j in range(len(labels))))\n",
    "show(tv.utils.make_grid(images))"
   ]
  },
  {
   "cell_type": "markdown",
   "metadata": {},
   "source": [
    "### 2.1 LeNet\n",
    "<img src=https://4.bp.blogspot.com/-Xc-1oK8cPHs/WS4aYCpsnSI/AAAAAAAADdU/jOARrMWGj3gs_pAXU-C4ryAFa8C_CuBfACLcB/s1600/fig_1_3_LeCun.png>"
   ]
  },
  {
   "cell_type": "code",
   "execution_count": 5,
   "metadata": {},
   "outputs": [
    {
     "name": "stdout",
     "output_type": "stream",
     "text": [
      "Net(\n",
      "  (conv1): Conv2d(3, 6, kernel_size=(5, 5), stride=(1, 1))\n",
      "  (conv2): Conv2d(6, 16, kernel_size=(5, 5), stride=(1, 1))\n",
      "  (fc1): Linear(in_features=400, out_features=120, bias=True)\n",
      "  (fc2): Linear(in_features=120, out_features=84, bias=True)\n",
      "  (fc3): Linear(in_features=84, out_features=10, bias=True)\n",
      ")\n",
      "conv1.weight : torch.Size([6, 3, 5, 5])\n",
      "conv1.bias : torch.Size([6])\n",
      "conv2.weight : torch.Size([16, 6, 5, 5])\n",
      "conv2.bias : torch.Size([16])\n",
      "fc1.weight : torch.Size([120, 400])\n",
      "fc1.bias : torch.Size([120])\n",
      "fc2.weight : torch.Size([84, 120])\n",
      "fc2.bias : torch.Size([84])\n",
…
    "train(device, lenet, train_data, test_data, 5, optimizer, criterion)"
   ]
  },
  {
   "cell_type": "markdown",
   "metadata": {},
   "source": [
    "### 2.2 AlexNet\n",
    "<img src=\"https://2.bp.blogspot.com/-scAJz-H9v4Y/WVj7Nl-YtNI/AAAAAAAAJss/1pdBtFPg7IUv0thtU-I5KBeX2a3Si5pXQCLcBGAs/s1600/alexnet_2.png\">"
   ]
  },
  {
   "cell_type": "markdown",
   "metadata": {},
   "source": [
    "#### 2.2.1 The original"
   ]
  },
  {
   "cell_type": "code",
   "execution_count": 55,
   "metadata": {},
   "outputs": [
    {
     "name": "stdout",
     "output_type": "stream",
     "text": [
      "AlexNet(\n",
      "  (features): Sequential(\n",
      "    (0): Conv2d(3, 64, kernel_size=(11, 11), stride=(4, 4), padding=(2, 2))\n",
      "    (1): ReLU(inplace)\n",
      "    (2): MaxPool2d(kernel_size=3, stride=2, padding=0, dilation=1, ceil_mode=False)\n",
      "    (3): Conv2d(64, 192, kernel_size=(5, 5), stride=(1, 1), padding=(2, 2))\n",
      "    (4): ReLU(inplace)\n",
      "    (5): MaxPool2d(kernel_size=3, stride=2, padding=0, dilation=1, ceil_mode=False)\n",
      "    (6): Conv2d(192, 384, kernel_size=(3, 3), stride=(1, 1), padding=(1, 1))\n",
      "    (7): ReLU(inplace)\n",
      "    (8): Conv2d(384, 256, kernel_size=(3, 3), stride=(1, 1), padding=(1, 1))\n",
      "    (9): ReLU(inplace)\n",
      "    (10): Conv2d(256, 256, kernel_size=(3, 3), stride=(1, 1), padding=(1, 1))\n",
      "    (11): ReLU(inplace)\n",
      "    (12): MaxPool2d(kernel_size=3, stride=2, padding=0, dilation=1, ceil_mode=False)\n",
      "  )\n",
      "  (classifier): Sequential(\n",
      "    (0): Dropout(p=0.5)\n",
      "    (1): Linear(in_features=9216, out_features=4096, bias=True)\n",
      "    (2): ReLU(inplace)\n",
      "    (3): Dropout(p=0.5)\n",
      "    (4): Linear(in_features=4096, out_features=4096, bias=True)\n",
      "    (5): ReLU(inplace)\n",
      "    (6): Linear(in_features=4096, out_features=1000, bias=True)\n",
      "  )\n",
      ")\n",
      "features.0.weight : torch.Size([64, 3, 11, 11])\n",
      "features.0.bias : torch.Size([64])\n",
      "features.3.weight : torch.Size([192, 64, 5, 5])\n",
      "features.3.bias : torch.Size([192])\n",
      "features.6.weight : torch.Size([384, 192, 3, 3])\n",
      "features.6.bias : torch.Size([384])\n",
      "features.8.weight : torch.Size([256, 384, 3, 3])\n",
…
   "metadata": {},
   "source": [
    "### 2.3 Visual Geometry Group (VGG)\n",
    "<img src=\"https://qph.ec.quoracdn.net/main-qimg-e657c195fc2696c7d5fc0b1e3682fde6\">\n",
    "<img src=\"https://cdn-images-1.medium.com/max/1600/0*HREIJ1hjF7z4y9Dd.jpg\" width=50%>"
   ]
  },
  {
   "cell_type": "markdown",
   "metadata": {},
   "source": [
    "#### 2.3.1 The original"
   ]
  },
  {
   "cell_type": "code",
   "execution_count": 62,
   "metadata": {},
   "outputs": [
    {
     "name": "stdout",
     "output_type": "stream",
     "text": [
      "VGG(\n",
      "  (features): Sequential(\n",
      "    (0): Conv2d(3, 64, kernel_size=(3, 3), stride=(1, 1), padding=(1, 1))\n",
      "    (1): ReLU(inplace)\n",
      "    (2): Conv2d(64, 64, kernel_size=(3, 3), stride=(1, 1), padding=(1, 1))\n",
      "    (3): ReLU(inplace)\n",
      "    (4): MaxPool2d(kernel_size=2, stride=2, padding=0, dilation=1, ceil_mode=False)\n",
      "    (5): Conv2d(64, 128, kernel_size=(3, 3), stride=(1, 1), padding=(1, 1))\n",
      "    (6): ReLU(inplace)\n",
      "    (7): Conv2d(128, 128, kernel_size=(3, 3), stride=(1, 1), padding=(1, 1))\n",
      "    (8): ReLU(inplace)\n",
      "    (9): MaxPool2d(kernel_size=2, stride=2, padding=0, dilation=1, ceil_mode=False)\n",
      "    (10): Conv2d(128, 256, kernel_size=(3, 3), stride=(1, 1), padding=(1, 1))\n",
      "    (11): ReLU(inplace)\n",
      "    (12): Conv2d(256, 256, kernel_size=(3, 3), stride=(1, 1), padding=(1, 1))\n",
      "    (13): ReLU(inplace)\n",
      "    (14): Conv2d(256, 256, kernel_size=(3, 3), stride=(1, 1), padding=(1, 1))\n",
      "    (15): ReLU(inplace)\n",
      "    (16): MaxPool2d(kernel_size=2, stride=2, padding=0, dilation=1, ceil_mode=False)\n",
      "    (17): Conv2d(256, 512, kernel_size=(3, 3), stride=(1, 1), padding=(1, 1))\n",
      "    (18): ReLU(inplace)\n",
      "    (19): Conv2d(512, 512, kernel_size=(3, 3), stride=(1, 1), padding=(1, 1))\n",
      "    (20): ReLU(inplace)\n",
      "    (21): Conv2d(512, 512, kernel_size=(3, 3), stride=(1, 1), padding=(1, 1))\n",
      "    (22): ReLU(inplace)\n",
      "    (23): MaxPool2d(kernel_size=2, stride=2, padding=0, dilation=1, ceil_mode=False)\n",
      "    (24): Conv2d(512, 512, kernel_size=(3, 3), stride=(1, 1), padding=(1, 1))\n",
      "    (25): ReLU(inplace)\n",
      "    (26): Conv2d(512, 512, kernel_size=(3, 3), stride=(1, 1), padding=(1, 1))\n",
      "    (27): ReLU(inplace)\n",
      "    (28): Conv2d(512, 512, kernel_size=(3, 3), stride=(1, 1), padding=(1, 1))\n",
      "    (29): ReLU(inplace)\n",
      "    (30): MaxPool2d(kernel_size=2, stride=2, padding=0, dilation=1, ceil_mode=False)\n",
      "  )\n",
      "  (classifier): Sequential(\n",
      "    (0): Linear(in_features=25088, out_features=4096, bias=True)\n",
      "    (1): ReLU(inplace)\n",
      "    (2): Dropout(p=0.5)\n",
      "    (3): Linear(in_features=4096, out_features=4096, bias=True)\n",
      "    (4): ReLU(inplace)\n",
      "    (5): Dropout(p=0.5)\n",
      "    (6): Linear(in_features=4096, out_features=1000, bias=True)\n",
      "  )\n",
      ")\n",
      "VGG(\n",
      "  (features): Sequential(\n",
      "    (0): Conv2d(3, 64, kernel_size=(3, 3), stride=(1, 1), padding=(1, 1))\n",
      "    (1): BatchNorm2d(64, eps=1e-05, momentum=0.1, affine=True, track_running_stats=True)\n",
      "    (2): ReLU(inplace)\n",
      "    (3): Conv2d(64, 64, kernel_size=(3, 3), stride=(1, 1), padding=(1, 1))\n",
      "    (4): BatchNorm2d(64, eps=1e-05, momentum=0.1, affine=True, track_running_stats=True)\n",
      "    (5): ReLU(inplace)\n",
      "    (6): MaxPool2d(kernel_size=2, stride=2, padding=0, dilation=1, ceil_mode=False)\n",
      "    (7): Conv2d(64, 128, kernel_size=(3, 3), stride=(1, 1), padding=(1, 1))\n",
      "    (8): BatchNorm2d(128, eps=1e-05, momentum=0.1, affine=True, track_running_stats=True)\n",
      "    (9): ReLU(inplace)\n",
      "    (10): Conv2d(128, 128, kernel_size=(3, 3), stride=(1, 1), padding=(1, 1))\n",
      "    (11): BatchNorm2d(128, eps=1e-05, momentum=0.1, affine=True, track_running_stats=True)\n",
      "    (12): ReLU(inplace)\n",
      "    (13): MaxPool2d(kernel_size=2, stride=2, padding=0, dilation=1, ceil_mode=False)\n",
      "    (14): Conv2d(128, 256, kernel_size=(3, 3), stride=(1, 1), padding=(1, 1))\n",
      "    (15): BatchNorm2d(256, eps=1e-05, momentum=0.1, affine=True, track_running_stats=True)\n",
      "    (16): ReLU(inplace)\n",
      "    (17): Conv2d(256, 256, kernel_size=(3, 3), stride=(1, 1), padding=(1, 1))\n",
      "    (18): BatchNorm2d(256, eps=1e-05, momentum=0.1, affine=True, track_running_stats=True)\n",
      "    (19): ReLU(inplace)\n",
      "    (20): Conv2d(256, 256, kernel_size=(3, 3), stride=(1, 1), padding=(1, 1))\n",
      "    (21): BatchNorm2d(256, eps=1e-05, momentum=0.1, affine=True, track_running_stats=True)\n",
      "    (22): ReLU(inplace)\n",
      "    (23): MaxPool2d(kernel_size=2, stride=2, padding=0, dilation=1, ceil_mode=False)\n",
      "    (24): Conv2d(256, 512, kernel_size=(3, 3), stride=(1, 1), padding=(1, 1))\n",
      "    (25): BatchNorm2d(512, eps=1e-05, momentum=0.1, affine=True, track_running_stats=True)\n",
      "    (26): ReLU(inplace)\n",
      "    (27): Conv2d(512, 512, kernel_size=(3, 3), stride=(1, 1), padding=(1, 1))\n",
      "    (28): BatchNorm2d(512, eps=1e-05, momentum=0.1, affine=True, track_running_stats=True)\n",
      "    (29): ReLU(inplace)\n",
      "    (30): Conv2d(512, 512, kernel_size=(3, 3), stride=(1, 1), padding=(1, 1))\n",
      "    (31): BatchNorm2d(512, eps=1e-05, momentum=0.1, affine=True, track_running_stats=True)\n",
      "    (32): ReLU(inplace)\n",
      "    (33): MaxPool2d(kernel_size=2, stride=2, padding=0, dilation=1, ceil_mode=False)\n",
      "    (34): Conv2d(512, 512, kernel_size=(3, 3), stride=(1, 1), padding=(1, 1))\n",
      "    (35): BatchNorm2d(512, eps=1e-05, momentum=0.1, affine=True, track_running_stats=True)\n",
      "    (36): ReLU(inplace)\n",
      "    (37): Conv2d(512, 512, kernel_size=(3, 3), stride=(1, 1), padding=(1, 1))\n",
      "    (38): BatchNorm2d(512, eps=1e-05, momentum=0.1, affine=True, track_running_stats=True)\n",
      "    (39): ReLU(inplace)\n",
      "    (40): Conv2d(512, 512, kernel_size=(3, 3), stride=(1, 1), padding=(1, 1))\n",
      "    (41): BatchNorm2d(512, eps=1e-05, momentum=0.1, affine=True, track_running_stats=True)\n",
      "    (42): ReLU(inplace)\n",
      "    (43): MaxPool2d(kernel_size=2, stride=2, padding=0, dilation=1, ceil_mode=False)\n",
      "  )\n",
      "  (classifier): Sequential(\n",
      "    (0): Linear(in_features=25088, out_features=4096, bias=True)\n",
      "    (1): ReLU(inplace)\n",
      "    (2): Dropout(p=0.5)\n",
      "    (3): Linear(in_features=4096, out_features=4096, bias=True)\n",
      "    (4): ReLU(inplace)\n",
      "    (5): Dropout(p=0.5)\n",
      "    (6): Linear(in_features=4096, out_features=1000, bias=True)\n",
      "  )\n",
      ")\n"
     ]
    }
   ],
   "source": [
    "vgg16=models.vgg16()\n",
    "vgg16_bn=models.vgg16_bn()\n",
    "print(vgg16)\n",
    "print(vgg16_bn)"
   ]
  },
  {
   "cell_type": "markdown",
   "metadata": {},
   "source": [
    "#### 2.3.2 The customized"
   ]
  },
  {
   "cell_type": "code",
   "execution_count": 34,
   "metadata": {},
…
    "        net.append(nn.ReLU(True))\n",
    "        \n",
    "    net.append(nn.MaxPool2d(2, 2))\n",
    "    return nn.Sequential(*net)\n",
    "\n",
    "def vgg_stack(num_convs, channels):\n",
    "    net = []\n",
    "    for n, c in zip(num_convs, channels):\n",
    "        in_c = c[0]\n",
    "        out_c = c[1]\n",
    "        net.append(vgg_block(n, in_c, out_c))\n",
    "    return nn.Sequential(*net)"
   ]
  },
  {
   "cell_type": "code",
   "execution_count": 35,
   "metadata": {},
   "outputs": [
    {
     "name": "stdout",
     "output_type": "stream",
     "text": [
      "Sequential(\n",
      "  (0): Conv2d(64, 128, kernel_size=(3, 3), stride=(1, 1), padding=(1, 1))\n",
      "  (1): ReLU(inplace)\n",
      "  (2): Conv2d(128, 128, kernel_size=(3, 3), stride=(1, 1), padding=(1, 1))\n",
      "  (3): ReLU(inplace)\n",
      "  (4): Conv2d(128, 128, kernel_size=(3, 3), stride=(1, 1), padding=(1, 1))\n",
      "  (5): ReLU(inplace)\n",
      "  (6): MaxPool2d(kernel_size=2, stride=2, padding=0, dilation=1, ceil_mode=False)\n",
      ")\n",
      "torch.Size([1, 128, 150, 150])\n",
      "Sequential(\n",
      "  (0): Sequential(\n",
      "    (0): Conv2d(3, 64, kernel_size=(3, 3), stride=(1, 1), padding=(1, 1))\n",
      "    (1): ReLU(inplace)\n",
      "    (2): MaxPool2d(kernel_size=2, stride=2, padding=0, dilation=1, ceil_mode=False)\n",
      "  )\n",
      "  (1): Sequential(\n",
      "    (0): Conv2d(64, 128, kernel_size=(3, 3), stride=(1, 1), padding=(1, 1))\n",
      "    (1): ReLU(inplace)\n",
      "    (2): MaxPool2d(kernel_size=2, stride=2, padding=0, dilation=1, ceil_mode=False)\n",
      "  )\n",
      "  (2): Sequential(\n",
      "    (0): Conv2d(128, 256, kernel_size=(3, 3), stride=(1, 1), padding=(1, 1))\n",
      "    (1): ReLU(inplace)\n",
      "    (2): Conv2d(256, 256, kernel_size=(3, 3), stride=(1, 1), padding=(1, 1))\n",
      "    (3): ReLU(inplace)\n",
      "    (4): MaxPool2d(kernel_size=2, stride=2, padding=0, dilation=1, ceil_mode=False)\n",
      "  )\n",
      "  (3): Sequential(\n",
      "    (0): Conv2d(256, 512, kernel_size=(3, 3), stride=(1, 1), padding=(1, 1))\n",
      "    (1): ReLU(inplace)\n",
      "    (2): Conv2d(512, 512, kernel_size=(3, 3), stride=(1, 1), padding=(1, 1))\n",
      "    (3): ReLU(inplace)\n",
      "    (4): MaxPool2d(kernel_size=2, stride=2, padding=0, dilation=1, ceil_mode=False)\n",
      "  )\n",
      "  (4): Sequential(\n",
      "    (0): Conv2d(512, 512, kernel_size=(3, 3), stride=(1, 1), padding=(1, 1))\n",
      "    (1): ReLU(inplace)\n",
      "    (2): Conv2d(512, 512, kernel_size=(3, 3), stride=(1, 1), padding=(1, 1))\n",
      "    (3): ReLU(inplace)\n",
      "    (4): MaxPool2d(kernel_size=2, stride=2, padding=0, dilation=1, ceil_mode=False)\n",
      "  )\n",
      ")\n",
      "torch.Size([1, 512, 8, 8])\n",
      "vgg(\n",
      "  (feature): Sequential(\n",
      "    (0): Sequential(\n",
      "      (0): Conv2d(3, 64, kernel_size=(3, 3), stride=(1, 1), padding=(1, 1))\n",
      "      (1): ReLU(inplace)\n",
      "      (2): MaxPool2d(kernel_size=2, stride=2, padding=0, dilation=1, ceil_mode=False)\n",
      "    )\n",
      "    (1): Sequential(\n",
      "      (0): Conv2d(64, 128, kernel_size=(3, 3), stride=(1, 1), padding=(1, 1))\n",
      "      (1): ReLU(inplace)\n",
      "      (2): MaxPool2d(kernel_size=2, stride=2, padding=0, dilation=1, ceil_mode=False)\n",
      "    )\n",
      "    (2): Sequential(\n",
      "      (0): Conv2d(128, 256, kernel_size=(3, 3), stride=(1, 1), padding=(1, 1))\n",
      "      (1): ReLU(inplace)\n",
      "      (2): Conv2d(256, 256, kernel_size=(3, 3), stride=(1, 1), padding=(1, 1))\n",
      "      (3): ReLU(inplace)\n",
      "      (4): MaxPool2d(kernel_size=2, stride=2, padding=0, dilation=1, ceil_mode=False)\n",
      "    )\n",
      "    (3): Sequential(\n",
      "      (0): Conv2d(256, 512, kernel_size=(3, 3), stride=(1, 1), padding=(1, 1))\n",
      "      (1): ReLU(inplace)\n",
      "      (2): Conv2d(512, 512, kernel_size=(3, 3), stride=(1, 1), padding=(1, 1))\n",
      "      (3): ReLU(inplace)\n",
      "      (4): MaxPool2d(kernel_size=2, stride=2, padding=0, dilation=1, ceil_mode=False)\n",
      "    )\n",
      "    (4): Sequential(\n",
      "      (0): Conv2d(512, 512, kernel_size=(3, 3), stride=(1, 1), padding=(1, 1))\n",
      "      (1): ReLU(inplace)\n",
      "      (2): Conv2d(512, 512, kernel_size=(3, 3), stride=(1, 1), padding=(1, 1))\n",
      "      (3): ReLU(inplace)\n",
      "      (4): MaxPool2d(kernel_size=2, stride=2, padding=0, dilation=1, ceil_mode=False)\n",
      "    )\n",
      "  )\n",
      "  (fc): Sequential(\n",
      "    (0): Linear(in_features=512, out_features=100, bias=True)\n",
      "    (1): ReLU(inplace)\n",
      "    (2): Linear(in_features=100, out_features=10, bias=True)\n",
      "  )\n",
      ")\n"
     ]
    }
   ],
   "source": [
    "# Testing model blocks:\n",
    "block_demo = vgg_block(3, 64, 128)\n",
    "print(block_demo)\n",
    "input_demo = t.zeros(1, 64, 300, 300)\n",
    "output_demo = block_demo(input_demo)\n",
    "print(output_demo.shape)\n",
    "\n",
    "# Testing the VGG core:\n",
    "vgg_net = vgg_stack((1, 1, 2, 2, 2), ((3, 64), (64, 128), (128, 256), (256, 512), (512, 512)))\n",
…
   "source": [
    "### 2.4 Residual Net (ResNet)\n",
    "\n",
    "<img src=\"http://lanbing510.info/public/img/posts/resnet/4.gif\">\n",
    "<img src=\"http://lanbing510.info/public/img/posts/resnet/3.png\" width=50%>\n",
    "<img src=\"http://lanbing510.info/public/img/posts/resnet/2.png\">"
   ]
  },
  {
   "cell_type": "markdown",
   "metadata": {},
   "source": [
    "#### 2.4.1 The original"
   ]
  },
  {
   "cell_type": "code",
   "execution_count": 49,
   "metadata": {},
   "outputs": [
    {
     "name": "stdout",
     "output_type": "stream",
     "text": [
      "ResNet(\n",
      "  (conv1): Conv2d(3, 64, kernel_size=(7, 7), stride=(2, 2), padding=(3, 3), bias=False)\n",
      "  (bn1): BatchNorm2d(64, eps=1e-05, momentum=0.1, affine=True, track_running_stats=True)\n",
      "  (relu): ReLU(inplace)\n",
      "  (maxpool): MaxPool2d(kernel_size=3, stride=2, padding=1, dilation=1, ceil_mode=False)\n",
      "  (layer1): Sequential(\n",
      "    (0): BasicBlock(\n",
      "      (conv1): Conv2d(64, 64, kernel_size=(3, 3), stride=(1, 1), padding=(1, 1), bias=False)\n",
      "      (bn1): BatchNorm2d(64, eps=1e-05, momentum=0.1, affine=True, track_running_stats=True)\n",
      "      (relu): ReLU(inplace)\n",
      "      (conv2): Conv2d(64, 64, kernel_size=(3, 3), stride=(1, 1), padding=(1, 1), bias=False)\n",
      "      (bn2): BatchNorm2d(64, eps=1e-05, momentum=0.1, affine=True, track_running_stats=True)\n",
      "    )\n",
      "    (1): BasicBlock(\n",
      "      (conv1): Conv2d(64, 64, kernel_size=(3, 3), stride=(1, 1), padding=(1, 1), bias=False)\n",
      "      (bn1): BatchNorm2d(64, eps=1e-05, momentum=0.1, affine=True, track_running_stats=True)\n",
      "      (relu): ReLU(inplace)\n",
      "      (conv2): Conv2d(64, 64, kernel_size=(3, 3), stride=(1, 1), padding=(1, 1), bias=False)\n",
      "      (bn2): BatchNorm2d(64, eps=1e-05, momentum=0.1, affine=True, track_running_stats=True)\n",
      "    )\n",
      "  )\n",
      "  (layer2): Sequential(\n",
      "    (0): BasicBlock(\n",
      "      (conv1): Conv2d(64, 128, kernel_size=(3, 3), stride=(2, 2), padding=(1, 1), bias=False)\n",
      "      (bn1): BatchNorm2d(128, eps=1e-05, momentum=0.1, affine=True, track_running_stats=True)\n",
      "      (relu): ReLU(inplace)\n",
      "      (conv2): Conv2d(128, 128, kernel_size=(3, 3), stride=(1, 1), padding=(1, 1), bias=False)\n",
      "      (bn2): BatchNorm2d(128, eps=1e-05, momentum=0.1, affine=True, track_running_stats=True)\n",
      "      (downsample): Sequential(\n",
      "        (0): Conv2d(64, 128, kernel_size=(1, 1), stride=(2, 2), bias=False)\n",
      "        (1): BatchNorm2d(128, eps=1e-05, momentum=0.1, affine=True, track_running_stats=True)\n",
      "      )\n",
      "    )\n",
      "    (1): BasicBlock(\n",
      "      (conv1): Conv2d(128, 128, kernel_size=(3, 3), stride=(1, 1), padding=(1, 1), bias=False)\n",
      "      (bn1): BatchNorm2d(128, eps=1e-05, momentum=0.1, affine=True, track_running_stats=True)\n",
      "      (relu): ReLU(inplace)\n",
      "      (conv2): Conv2d(128, 128, kernel_size=(3, 3), stride=(1, 1), padding=(1, 1), bias=False)\n",
      "      (bn2): BatchNorm2d(128, eps=1e-05, momentum=0.1, affine=True, track_running_stats=True)\n",
      "    )\n",
      "  )\n",
      "  (layer3): Sequential(\n",
      "    (0): BasicBlock(\n",
      "      (conv1): Conv2d(128, 256, kernel_size=(3, 3), stride=(2, 2), padding=(1, 1), bias=False)\n",
      "      (bn1): BatchNorm2d(256, eps=1e-05, momentum=0.1, affine=True, track_running_stats=True)\n",
      "      (relu): ReLU(inplace)\n",
      "      (conv2): Conv2d(256, 256, kernel_size=(3, 3), stride=(1, 1), padding=(1, 1), bias=False)\n",
      "      (bn2): BatchNorm2d(256, eps=1e-05, momentum=0.1, affine=True, track_running_stats=True)\n",
      "      (downsample): Sequential(\n",
      "        (0): Conv2d(128, 256, kernel_size=(1, 1), stride=(2, 2), bias=False)\n",
      "        (1): BatchNorm2d(256, eps=1e-05, momentum=0.1, affine=True, track_running_stats=True)\n",
      "      )\n",
      "    )\n",
      "    (1): BasicBlock(\n",
      "      (conv1): Conv2d(256, 256, kernel_size=(3, 3), stride=(1, 1), padding=(1, 1), bias=False)\n",
      "      (bn1): BatchNorm2d(256, eps=1e-05, momentum=0.1, affine=True, track_running_stats=True)\n",
      "      (relu): ReLU(inplace)\n",
      "      (conv2): Conv2d(256, 256, kernel_size=(3, 3), stride=(1, 1), padding=(1, 1), bias=False)\n",
      "      (bn2): BatchNorm2d(256, eps=1e-05, momentum=0.1, affine=True, track_running_stats=True)\n",
      "    )\n",
      "  )\n",
      "  (layer4): Sequential(\n",
      "    (0): BasicBlock(\n",
      "      (conv1): Conv2d(256, 512, kernel_size=(3, 3), stride=(2, 2), padding=(1, 1), bias=False)\n",
      "      (bn1): BatchNorm2d(512, eps=1e-05, momentum=0.1, affine=True, track_running_stats=True)\n",
      "      (relu): ReLU(inplace)\n",
      "      (conv2): Conv2d(512, 512, kernel_size=(3, 3), stride=(1, 1), padding=(1, 1), bias=False)\n",
      "      (bn2): BatchNorm2d(512, eps=1e-05, momentum=0.1, affine=True, track_running_stats=True)\n",
      "      (downsample): Sequential(\n",
      "        (0): Conv2d(256, 512, kernel_size=(1, 1), stride=(2, 2), bias=False)\n",
      "        (1): BatchNorm2d(512, eps=1e-05, momentum=0.1, affine=True, track_running_stats=True)\n",
      "      )\n",
      "    )\n",
      "    (1): BasicBlock(\n",
      "      (conv1): Conv2d(512, 512, kernel_size=(3, 3), stride=(1, 1), padding=(1, 1), bias=False)\n",
      "      (bn1): BatchNorm2d(512, eps=1e-05, momentum=0.1, affine=True, track_running_stats=True)\n",
      "      (relu): ReLU(inplace)\n",
      "      (conv2): Conv2d(512, 512, kernel_size=(3, 3), stride=(1, 1), padding=(1, 1), bias=False)\n",
      "      (bn2): BatchNorm2d(512, eps=1e-05, momentum=0.1, affine=True, track_running_stats=True)\n",
      "    )\n",
      "  )\n",
      "  (avgpool): AvgPool2d(kernel_size=7, stride=7, padding=0)\n",
      "  (fc): Linear(in_features=512, out_features=1000, bias=True)\n",
      ")\n"
     ]
    }
   ],
   "source": [
    "resnet=models.resnet18() # try resnet34, resnet50, etc.\n",
    "print(resnet)"
   ]
  },
  {
   "cell_type": "markdown",
   "metadata": {},
   "source": [
    "#### 2.4.2 The customized (not finished yet)"
   ]
  },
  {
   "cell_type": "code",
   "execution_count": 41,
   "metadata": {},
   "outputs": [
…
